cifar_net.pth (torch, 251167 bytes, 10 tensors)

conv1.weight f4 [6, 3, 5, 5]
000000 d5 58 7d 3d ca 50 85 3d f9 e7 a7 3d e8 cc fe 3c
       0.061852295 0.0650955 0.08198542 0.031103566
000010 c4 a1 2f 3d 2e 09 ab 3d d5 c7 26 bd 57 2b e0 bc
       0.04287888 0.0835136 -0.04071792 -0.027364416
000020 85 24 32 be 31 56 0a be f7 45 2c 3d 6f 2d 24 3e
       -0.17396744 -0.13509442 0.04205891 0.16032957
000030 d5 64 57 3e ec 43 6e 3e 85 75 6d 3e 0c 86 92 3e
       0.21034558 0.23268098 0.23189361 0.28617895
000040 4d 06 9b 3e 7e be 12 3e 66 54 fc 3d 99 46 e3 3d
       0.30278245 0.1433048 0.12320785 0.1109745
000050 76 7a 3b 3e c9 0c 5f 3c 9f 75 29 bd 89 3b 8f 3d
       0.18308434 0.013613888 -0.041371938 0.06993777
000060 c1 4e f0 bc a9 f9 8e 3d 4e a8 4b be ba 38 7c be
       -0.029334428 0.06981213 -0.19888422 -0.24631014
000070 cd 0a 5d be 65 d7 5f be 00 c3 b2 be 37 96 ad be
       -0.21586151 -0.2185951 -0.34914398 -0.33903667
000080 24 d2 d1 be 7a a1 50 be 67 b4 9b be 6d 31 0d be
       -0.40980637 -0.20374098 -0.30411074 -0.13788386
000090 26 cd 8b bd 6e 95 f3 3c e7 6a 34 3d dd 78 cf bd
       -0.06826238 0.02973434 0.044047263 -0.10130475
0000a0 8d 55 04 be 70 04 00 bd 40 84 1b 3d dd 7b d3 3d
       -0.1292326 -0.031254232 0.03796792 0.103263594
0000b0 df 0e 92 3c a2 12 86 be a0 93 bd bd eb ed 6b be
       0.017829357 -0.2618609 -0.09256673 -0.23039977
0000c0 e8 05 72 be c1 16 e0 bd 3b e4 82 3e 6d 57 cd 3d
       -0.23635066 -0.1094184 0.2556475 0.10026441
0000d0 b6 92 17 3c 63 c5 6f bd 1c 2f 96 3b b2 69 1b bd
       0.009251287 -0.058537852 0.0045832526 -0.037942596
0000e0 c9 12 28 be 9b a8 77 be 0b 31 f5 bd f5 ee c4 bb
       -0.16413416 -0.24185412 -0.11972245 -0.006009931
0000f0 c5 d9 8d 3d f3 d6 83 3c 8b 63 64 3e 49 75 0a 3e
       0.06926302 0.016093707 0.22303598 0.13521303
000100 88 98 90 3e 61 44 54 3e 3c f6 31 3d e5 d2 a9 3e
       0.28241372 0.2072921 0.043447718 0.33168712
000110 b9 e1 5e 3e ed f8 65 3e 7b e7 5a bc 7c f5 5b bc
       0.21765794 0.22458239 -0.013360853 -0.013425227
000120 f2 ab d0 bb fe fa af 3c 8f fa 01 3e 07 db ae bd
       -0.0063681537 0.021481987 0.12693237 -0.0853787
000130 f4 9f 6c 3d fc 1c e2 bc ff 26 58 bd cd d9 7f 3e
       0.05776973 -0.027601711 -0.052771565 0.24985428
000140 50 a5 88 bd 28 5f 96 3e 49 6a 22 3c c4 10 de be
       -0.06672156 0.29369473 0.009913036 -0.43372166
000150 15 79 56 3e 2b 7d 27 3e c8 cc 68 3e 4f 62 d7 3c
       0.20944627 0.16356342 0.22734368 0.026291994
000160 77 cf ff be 9e da 57 3e 3e 2f 2b 3e cc f1 82 3e
       -0.4996297 0.2107949 0.1671724 0.255751
000170 bb e4 79 be 10 f9 85 be f5 86 57 3e b2 cb a5 3d
       -0.2440366 -0.26166582 0.21047576 0.080954924
000180 f3 1a 75 3d 28 f4 57 be c3 ad a3 bd 19 db 26 3e
       0.059840154 -0.21089232 -0.07992127 0.16294517
000190 b1 1a 99 bd 6e eb af 3d c1 54 06 bc 9f 44 cb be
       -0.07475794 0.085898265 -0.008198918 -0.3970079
0001a0 c8 c4 36 3d 9f 1e 17 3e 5d 35 5a 3e 8e 4d 1c 3d
       0.04462126 0.14757775 0.21309419 0.0381599
0001b0 52 db e3 be 3c fd 3f bd 3c 49 4c 3e c5 1c b0 3e
       -0.44503266 -0.046872362 0.19949812 0.3439695
0001c0 23 cb 0d be b6 d7 19 bf 9c 95 a9 3d 75 79 16 3e
       -0.13847022 -0.60094774 0.08280489 0.1469477
0001d0 23 d6 ab 3e 0c ed 9d be 0e 3a f7 be 50 c5 27 3e
       0.3356181 -0.30844915 -0.4828648 0.16383862
0001e0 18 fc 3a 3d 08 3c b0 3d 57 66 94 be f1 e4 c6 bd
       0.04565057 0.086052 -0.2898433 -0.09711636
0001f0 64 bf c2 3d 1b 8c 80 bd e5 67 4e 3e f7 7e 8a 3d
       0.09509161 -0.06276723 0.2015682 0.06762498
000200 cf 6f 75 be b0 1d 2d 3c 3d 86 ab 3d f7 2d b3 3e
       -0.23968433 0.01056616 0.08375213 0.34996006
000210 10 b0 1b 3e ee 78 09 bf 90 a3 bd bc ec 53 76 3e
       0.15203881 -0.5370015 -0.023149282 0.24055451
000220 9a f2 80 3e 0c 05 6d bd 5c 98 cc be c7 f6 3f bd
       0.2518509 -0.05786614 -0.3995999 -0.046866205
000230 68 35 8d 3e 5d 36 ad 3e 8c 7b 70 be d5 28 7e be
       0.27579808 0.33830538 -0.2348463 -0.24820264
000240 42 b7 25 3e a5 4e 1a 3e c9 95 17 3d 78 ea f6 bd
       0.16183189 0.15069063 0.03700808 -0.1205644
000250 c0 06 ae bd ff f2 ce 3d 27 cf 6d bd 4b fa c9 3c
       -0.08497381 0.101049416 -0.058058884 0.024655482
000260 c6 ef ce bd 4d c9 9e 3c fa f6 34 bd 8c 53 69 3c
       -0.10104327 0.019383097 -0.044180848 0.0142411105
000270 5c d7 4c bd 5c 2a 86 3d 10 7d c8 bd 20 4a f0 bd
       -0.05001007 0.06551048 -0.09789479 -0.11732888
000280 84 e8 20 bd ba 5e 2f 3e 8a 45 0d 3d 31 57 32 3d
       -0.039284244 0.17125979 0.034490146 0.043540183
000290 31 33 9e bd b3 16 1c 3e e7 51 32 3e 23 46 ec 3d
       -0.07724608 0.15243034 0.17414056 0.11536815
0002a0 1f ca 23 3e 55 41 e7 3d 4c 9f 02 3e 6e b3 72 3e
       0.15995072 0.11291758 0.1275608 0.2370126
0002b0 a5 ed 80 3e 2b e4 67 3e 99 34 bc 3d 41 1a e0 bd
       0.25181308 0.22645633 0.0918972 -0.109425075
0002c0 e7 59 f4 3b 5f 50 40 be 61 a9 d0 bd 42 97 3e bd
       0.0074570063 -0.18780659 -0.101885565 -0.04653097
0002d0 fc b9 b0 bd 23 3e 2a bd 7c 95 52 bd 35 d5 41 bd
       -0.08629224 -0.041563164 -0.05141209 -0.04732247
0002e0 7c dd d7 bd 61 3b 1d bd f5 42 78 bd 2d b0 48 bd
       -0.10540292 -0.038386706 -0.06061073 -0.04899614
0002f0 9b 0f 9b bd 68 0f aa bd f2 17 07 be 7d f1 bf 3d
       -0.07571336 -0.0830372 -0.13192728 0.09372232
000300 d8 e9 4d 3d 85 fa 94 bd 7f 9a 29 bd b6 62 d6 bd
       0.05027184 -0.07274345 -0.041407105 -0.10468046
000310 30 9d 8f 3c 94 f0 5e 3d 5e 64 2a 3d 54 25 6a 3c
       0.017531008 0.054428652 0.041599624 0.014291126
000320 04 24 f2 3d 48 58 ea 3b 8f cd 19 3e 8b 50 f7 3d
       0.11823276 0.007151637 0.1501982 0.12075909
000330 36 f4 23 3e e9 e2 26 3e 59 dc ad 3d e2 b8 e2 3d
       0.16011128 0.16297497 0.084892936 0.1107042
000340 d1 05 e9 bc 60 64 bd 3d 1d 22 af 3d d5 0f 46 3e
       -0.028445156 0.09247661 0.085514285 0.19341977
000350 65 54 03 3e b5 99 a9 3d 9f a1 da 3c 14 51 16 bd
       0.12825163 0.082812704 0.026688395 -0.036698416
000360 ef 3e ba bc 32 d6 83 3e cf f1 c2 3d c6 1b fd bd
       -0.022735087 0.25749356 0.095187776 -0.12358813
000370 db 32 49 bd 32 7b d8 bb e0 4e 73 bc 1f 0b d7 bb
       -0.049120765 -0.006606483 -0.014850348 -0.006562605
000380 a3 03 9c bd 6d 83 f9 3b 5f a3 ee 3d 12 ea 82 bd
       -0.07617881 0.007614544 0.11652254 -0.063923016
000390 31 1c 78 3c ea 0c 39 be 61 90 32 be f5 57 87 be
       0.01514344 -0.18071333 -0.17437889 -0.26434293
0003a0 f8 53 8a be a6 0b 4f be 48 52 cb be f8 7e 70 be
       -0.27017188 -0.20219287 -0.39711213 -0.23485935
0003b0 f1 4f bf be d1 1f 75 be 9a 3d 9d be 0e a4 6f be
       -0.37365678 -0.23937918 -0.3071106 -0.23402426
0003c0 71 18 d2 3d e5 57 59 3e 60 2f 80 3e d6 bc 28 3e
       0.10258568 0.21224935 0.25036144 0.16478285
0003d0 6d 16 45 3e 4e 67 35 3e 30 93 86 3e 82 8d a3 3e
       0.19246836 0.17715189 0.2628417 0.319439
0003e0 1a 2e 6e 3e db 2d 05 3e 96 e0 a1 3d ff 4b b3 3e
       0.23259774 0.13005774 0.079041645 0.35018918
0003f0 08 99 6d 3e 7d 4c 8f 3e 72 48 62 3c 61 51 4e be
       0.23202908 0.27988043 0.013811218 -0.20148231

conv1.bias f4 [6]
000000 b1 ff ee bd 93 28 19 be ea e5 62 3e a2 6f 2f be
       -0.11669863 -0.14956884 0.22158018 -0.17132428
000010 d7 2e b6 be 68 6c b3 3e
       -0.3558261 0.35043645

conv2.weight f4 [16, 6, 5, 5]
000000 d4 6f 46 bd de 56 fe 3d 88 f0 8d 3d bf 43 6e bd
       -0.04844649 0.12418912 0.06930643 -0.058170076
000010 ce 45 8e bd a6 b4 b8 bc 86 62 90 3d 4c 20 0a 3e
       -0.06946908 -0.022547077 0.07050042 0.13488883
000020 18 75 86 3d 60 c7 53 bd ab 3d 9c bd ed 00 a4 bb
       0.065653026 -0.05170381 -0.0762895 -0.005004993
000030 e4 1e 05 3d dd c2 a2 3c 87 3c 35 3c 53 2d a0 bd
       0.032500163 0.019868309 0.011061794 -0.07821145
000040 19 15 86 bd 30 a8 8c bc 1f 37 8d bc 2a 2e 96 3c
       -0.06546993 -0.017170042 -0.017238198 0.01833256
000050 52 84 a9 bd f6 e0 80 bd d1 07 53 bd ab 25 d6 bd
       -0.08277191 -0.06292908 -0.051521126 -0.10456403
000060 4f 7b 27 3c 96 0c 20 3c 9a ea a5 3d e6 e3 1d 3e
       0.01022227 0.009768626 0.08101387 0.15418968
000070 9a ec 8e 3d 6a 8f 14 bd d8 af fa bd c4 7f b7 bc
       0.06978722 -0.036269583 -0.12240571 -0.02239979
000080 d6 91 9b 3d c6 79 77 3e 83 b2 00 be 80 90 9c bd
       0.075961754 0.24167547 -0.12568097 -0.07644749
000090 3f 90 15 be b9 bc a1 3c 3d 68 a6 3e 47 0e 8d 3d
       -0.14605807 0.01974331 0.32501402 0.06887489
0000a0 5d 8a b4 bd a9 a5 72 bd 6b 49 b7 bd e0 9c 82 3e
       -0.08815453 -0.059240017 -0.0894955 0.2551031
0000b0 2e c6 a6 3d a7 08 5d bd 7d bb ae bd f6 2b 3a bd
       0.081432685 -0.05396333 -0.08531854 -0.04545208
0000c0 cb 1d 22 3e 73 c3 f8 3d ba 76 24 3e 3e fc 04 3d
       0.15831678 0.12146654 0.16060916 0.03246712
0000d0 bc df b2 3d 23 06 f8 bd cd f1 3f be 0c e3 ef 3d
       0.0873408 -0.121105455 -0.18744583 0.11713228
0000e0 d7 f5 c4 bc 92 86 ce 3d e2 6b 84 bd 43 76 0f bd
       -0.024043007 0.10084261 -0.064658895 -0.035024893
0000f0 5d 37 bc 3c 66 e2 f7 3c db f1 65 bb b5 39 bd bc
       0.022975618 0.030259322 -0.0035086784 -0.023098806
000100 05 41 cd bd 2e 93 1f 3d 2f e5 91 bb 80 50 45 3b
       -0.10022167 0.03895872 -0.0044523696 0.0030107796
000110 70 0b cc 3d 1e 5e b3 3b b0 a7 86 3d e0 5a ad 3d
       0.09963119 0.005473866 0.065749526 0.08464599
000120 e7 c4 88 3d 13 0a bf 3d b4 67 8c 3d 88 fc 54 bd
       0.06678181 0.093280934 0.06855717 -0.051998645
000130 42 8a 39 bb 7e 0b 5d bd a8 07 e1 bd 4f fe 20 be
       -0.0028311168 -0.053966038 -0.109877884 -0.15722011
000140 d0 b0 7b 3d aa db 58 bc 24 58 07 bd 0c 56 21 be
       0.06144792 -0.013235966 -0.03304304 -0.1575548
000150 68 12 32 be 41 70 d0 3c ff 99 92 bc 67 16 cf bd
       -0.17389834 0.025444152 -0.017895697 -0.10111695
000160 cd 2c 09 be e0 a4 38 be 93 f7 b4 bd 74 a0 7c bd
       -0.13395996 -0.18031645 -0.088362835 -0.061676458
000170 25 97 c6 bd 33 4e 63 be 7d e7 25 be 95 4e 51 bd
       -0.09696797 -0.221978 -0.16201587 -0.051100332
000180 9b 36 33 bd ba 51 29 be 6f fc 9b bd 75 b7 e6 bd
       -0.043753248 -0.16535082 -0.07616507 -0.112654604
000190 73 71 cd 3d aa 16 8f 3d ce 32 41 bc c1 38 a9 3d
       0.10031404 0.06986745 -0.011791898 0.08262778
0001a0 fd 2f e8 3d a4 1c ab 3c 48 6a cf 3c ac b9 89 bd
       0.11337278 0.02088768 0.025319234 -0.06724867
0001b0 0e 94 14 3e 7d 0e 1f 3e f7 62 97 bd aa 6c d2 bd
       0.14509603 0.1553287 -0.07391923 -0.10274632
0001c0 5e 59 b0 bd 6c f4 a6 3b c5 db 03 3e 33 9d d9 bc
       -0.086107954 0.0050950553 0.12876804 -0.026564216
0001d0 0b be 5b be 36 55 1b be f5 d8 c4 bd e7 da 39 bd
       -0.21459214 -0.15169224 -0.09611694 -0.045374777
0001e0 68 b5 17 be 72 5a 39 be a3 51 5f be 15 14 66 be
       -0.14815295 -0.18100908 -0.21808486 -0.22468598
0001f0 18 ce 06 be 1c 6e 39 3e d5 25 4d 3d c0 28 dc 3c
       -0.13164556 0.1810841 0.050084908 0.0268749
000200 ca d5 e7 bd 22 bb 87 be 18 43 51 3e 2b 37 0b 3e
       -0.11320074 -0.26509959 0.2043575 0.13595264
000210 31 ce 56 3d bd be 19 be 5f 2e 83 be 71 e2 01 3e
       0.052442733 -0.15014167 -0.25621316 0.12684037
000220 6b 72 5f 3d 67 86 37 3d f8 9a 41 bd 32 11 60 be
       0.054552477 0.04480591 -0.04726693 -0.2188156
000230 9b 92 69 3d d6 c2 96 3d 59 8b cd 3b ff f5 14 bc
       0.05702458 0.07361381 0.006272715 -0.009091853
000240 46 9c bb bd 4a fd ae 3d fc 72 e6 3c 45 c3 a8 bd
       -0.09160666 0.08544405 0.028131 -0.0824037
000250 01 2b 9e bc 91 2a eb bd 7e 49 cb 3d 98 5e 17 3c
       -0.019307615 -0.11482728 0.09926127 0.0092388615
000260 30 71 14 bd d5 ae 26 bd dd f1 14 3e 61 02 8f 3d
       -0.036240757 -0.040694077 0.14545389 0.069828756
000270 62 a1 cf bd 99 52 5c bd fa 1f bc 3b 16 22 f8 3c
       -0.10138203 -0.05378971 0.0057411166 0.030289691
000280 e6 a8 94 bd 11 68 1f bd 26 3d 88 bb e9 f3 4c 3c
       -0.07258777 -0.038917605 -0.00415768 0.012509325
000290 e4 55 f5 3d fc bb c4 bd 7a a1 5c bd e4 09 a5 bd
       0.11979273 -0.09606168 -0.053864934 -0.08058527
0002a0 6d 0c cb bb cf fc d1 bd 91 54 65 bd 09 11 1f bd
       -0.0061965496 -0.102532975 -0.055988852 -0.038834605
0002b0 41 df 6c bd 47 66 9a bd b9 91 02 be 3c 72 8d 3d
       -0.0578301 -0.07539039 -0.12750901 0.06906554
0002c0 07 f4 62 3e b8 64 99 3b 3f 54 f8 bd 9c b7 e3 bd
       0.22163402 0.004681196 -0.12125444 -0.11119005
0002d0 f5 2a 40 3e b2 b9 8b 3d b8 b3 2c 3e 71 41 84 bd
       0.18766387 0.06822528 0.16865432 -0.064577945
0002e0 6e ac 35 bc 2f 75 85 3e 65 55 6c bc 99 eb 4c 3e
       -0.011088474 0.26065966 -0.0144246565 0.20011748
0002f0 00 e7 d0 bd 3e 50 e3 bc 5e 1f 32 3d d4 ee 20 be
       -0.1020031 -0.027748223 0.043486945 -0.15716106
000300 5b 53 ab 3e a5 5f 18 be 99 4c 31 be ad 85 47 3d
       0.33462033 -0.14880235 -0.17314376 0.048711468
000310 26 f9 85 be e1 5a 06 bb b2 92 b7 bd ec ac 77 be
       -0.26166648 -0.0020500945 -0.08963527 -0.24187058
000320 a6 e9 1d be 02 b8 39 be 91 14 e7 bd c6 15 4a bd
       -0.15421161 -0.181366 -0.112832196 -0.04933717
000330 cb fa fb bd c8 3c 2b be 0a e2 d9 bc b0 ff 23 bd
       -0.12303694 -0.16722405 -0.026597042 -0.040038764
000340 48 ea b7 bd bf bc 41 bd cd 3d 6d bd 23 7d ea bc
       -0.089802325 -0.047299143 -0.057920266 -0.028624123
000350 c8 8c c7 bd c9 31 0d 3c 5a 4e a7 bc 6a 9d 2d bd
       -0.09743649 0.008617827 -0.020423103 -0.04238645
000360 ff cf 3d 3d 25 95 8d bd b1 6d 9d 3d 2a 31 66 bd
       0.04634094 -0.06913213 0.076869376 -0.05619923
000370 5f 7b 90 bd 5e 5e 97 bc bc 34 a2 3d e8 0f 39 3d
       -0.07054781 -0.018477615 0.079202145 0.045181185
000380 8f 21 3d 3d 76 ee d5 3c 4e 0b 35 bd a0 be 15 bd
       0.046174582 0.026114684 -0.044200234 -0.036558747
000390 15 bb 37 3d dd 5a 00 3e bd 91 62 bd c0 e8 ff bb
       0.04485615 0.12534662 -0.055314768 -0.0078097284
0003a0 a9 4b c2 bc d0 4f 17 bd d4 15 8e 3d ed 1c 70 bb
       -0.023717718 -0.03694135 0.06937757 -0.0036638335
0003b0 0a 00 e7 bb c7 3e b5 bd 87 d2 df bd c1 62 a5 bd
       -0.007049565 -0.088498645 -0.10928827 -0.080754764
0003c0 13 c9 c8 3d 39 a2 1c bc 78 f1 98 3d 4f 9e 46 3c
       0.09803977 -0.009560161 0.074679315 0.012122705
0003d0 61 04 34 bd ea 8b e9 bc 5f b6 05 3d a4 27 14 bd
       -0.04394949 -0.028509099 0.032644626 -0.036170617
0003e0 b1 1c c0 bd ac c2 e6 bd 49 11 19 3e bc 7e 3b 3e
       -0.093804725 -0.112675995 0.14948 0.18310064
0003f0 18 d1 72 3e 4f 69 d5 bd 56 7e 42 bd d8 37 2a 3d
       0.23712575 -0.10420477 -0.047483765 0.041557163

conv2.bias f4 [16]
000000 6b 5d bc be f8 a9 02 3f c2 88 36 bc 32 8b e3 3c
       -0.36790022 0.510406 -0.011141004 0.027776334
000010 d6 32 10 be f6 5d 18 bf 6b 9a 3d be 1f 94 9d 3f
       -0.14081892 -0.59518373 -0.18515937 1.2310828
000020 19 87 0e be c0 ad 9e bc 08 ad 8b be f8 14 fd 3e
       -0.13918723 -0.01936996 -0.2728045 0.4943006
000030 77 2b 00 bf dc e9 83 3c 35 47 bd be e4 72 a3 be
       -0.5006632 0.016102724 -0.3696839 -0.31923592

fc1.weight f4 [120, 400]
000000 f6 f5 c5 bc b2 ff 59 3c 42 93 d2 3c 5e 3c 3e bc
       -0.024165135 0.013305591 0.025704984 -0.011611072
000010 78 27 3d bd 28 f0 56 bc 16 9b b8 bb aa c7 f4 3a
       -0.04618022 -0.013118781 -0.005633722 0.0018675227
000020 ac bb 45 bc f6 0a 7a bd b2 3d a7 3d 5f 13 f1 3c
       -0.01206867 -0.06104561 0.08166064 0.029428182
000030 44 b4 a7 3a 10 61 b4 bb 0c 0f 8f bd 94 e0 91 3d
       0.0012794812 -0.005504735 -0.06985292 0.07122913
000040 59 58 8a 3c 7e af 17 3d 7c 6b 84 bb 0a 0a fa bc
       0.01688783 0.037032597 -0.0040411334 -0.030522365
000050 4b e3 67 3c 80 a6 7e b9 6e 1c 9f bc f7 4b 96 bc
       0.014153312 -0.00024285354 -0.019422736 -0.01834677
000060 d1 93 a2 bd ce 65 47 bd 73 d6 89 bd e3 8b 81 bc
       -0.0793835 -0.048681073 -0.06730356 -0.015813773
000070 30 26 9a bd e9 42 6f bd b0 4a a9 3b ad 81 a4 3c
       -0.07526815 -0.05841342 0.005166374 0.020081365
000080 ab 23 c2 bc 85 7b a9 bc a3 a8 60 bd 1b 19 9b 3c
       -0.023698648 -0.020688782 -0.054848325 0.01893287
000090 50 4d 2f bd 5f 56 45 bd c6 d8 21 3d 8e ed 19 3d
       -0.04279834 -0.048178073 0.039513372 0.037580065
0000a0 e0 27 3e ba 6a 7f 43 3c 29 0b b4 bc a1 b5 17 3d
       -0.00072538666 0.011932233 -0.021977978 0.03703845
0000b0 4c b9 15 3d 33 41 24 3b f8 8a 06 3d 48 f4 98 3c
       0.036553666 0.0025063276 0.032847375 0.01867117
0000c0 79 fd 62 3d d9 b8 3e bd 21 33 61 bd 8f 6a 5f bd
       0.05541751 -0.046563003 -0.0549804 -0.05454498
0000d0 97 7d a2 bc dd e0 ba bc dc 22 3a bc de e1 7b bd
       -0.019835277 -0.022812301 -0.01136085 -0.0614947
0000e0 c0 03 b1 3c eb 46 99 3c 52 d0 06 3d ca 87 51 bc
       0.021608233 0.018710574 0.032913513 -0.012788722
0000f0 d4 f4 1d bd 80 97 03 bd 16 8f 32 bd 25 a6 0d 3c
       -0.038563564 -0.032126904 -0.04359349 0.008645569
000100 5d 06 77 bc 19 51 86 bc 25 b3 ca 3c 53 32 17 bd
       -0.015077201 -0.016396092 0.024743626 -0.036913227
000110 0d 9d d9 3c d5 bf 1f bd 5e 72 f2 bc bd ce 0e bd
       0.026564145 -0.039001305 -0.02959555 -0.03486513
000120 33 5c f7 3c 18 5d fd ba d1 d0 26 bd 53 a2 62 bc
       0.030195331 -0.0019330112 -0.040726487 -0.013832646
000130 92 6e 8f bb af 91 0d 3c c8 db ae 3c bf 9b 4b bd
       -0.0043771947 0.008640691 0.021345034 -0.049709078
000140 b1 7e bc bb 0e 97 17 bc 93 24 25 3d 9c 6f cb bc
       -0.0057524075 -0.009252323 0.040318083 -0.024833493
000150 c6 74 72 bd 63 a5 b2 3c dd fd 03 bd b2 5f c7 3c
       -0.059193395 0.021807378 -0.032224525 0.024337623
000160 1c 01 72 bc f4 d5 72 bd 63 f4 02 bd 4a 16 f6 bc
       -0.014770772 -0.059286073 -0.031971347 -0.030039925
000170 a7 cb 52 3d 77 dc 2a bd c1 c9 b0 3c a9 eb be bc
       0.05146375 -0.041714158 0.021580579 -0.02330573
000180 34 70 0c bd 21 7a c5 3c e3 66 6d bc e4 a1 48 bd
       -0.034286693 0.024106087 -0.014489862 -0.048982516
000190 71 5f 8f bd 70 4a d1 bc cb 50 0a bd ef b3 0a 3c
       -0.07000626 -0.02554819 -0.033768456 0.008465751
0001a0 ec 73 83 3c a4 4a 47 bc a6 c6 4f bd 41 c3 2b bd
       0.016046487 -0.012163792 -0.050726555 -0.041934256
0001b0 0e fa b3 3b 83 e7 03 bb 8f 37 c6 3c c3 cd a5 bc
       0.0054924553 -0.0020127005 0.024196414 -0.020239716
0001c0 38 fc 18 3d a3 dc 5f bc 01 14 69 bb 72 27 3e 3a
       0.03734991 -0.013663444 -0.0035564902 0.00072538026
0001d0 85 3b 00 bd 02 94 cf bc 63 60 7a 3c 63 f5 f2 3b
       -0.031306762 -0.02533913 0.015281769 0.0074145063
0001e0 05 7d 28 bd fd 72 8a bc d2 22 b4 bb 84 6f 0a bc
       -0.041134853 -0.016900534 -0.005497315 -0.008449439
0001f0 9e 4e c2 bc 65 0b bf bd d5 51 cc bd 74 cc 95 bd
       -0.023719128 -0.09328345 -0.09976546 -0.07314387
000200 8d 13 52 bd 96 79 38 bd 6f 07 b9 bd aa 79 18 3c
       -0.051288176 -0.04503783 -0.09034621 0.009306351
000210 27 21 5c bd 65 ca 6b bd 65 15 bd bd 0e b8 18 bc
       -0.053742554 -0.057566065 -0.09232596 -0.009321226
000220 a8 29 1f bd 55 f8 d8 3c 50 86 a1 3c f7 59 5b bd
       -0.038858086 0.026485601 0.019717366 -0.053552594
000230 dd 83 b4 bc d3 8c 87 3d c8 f0 90 bb f6 33 70 bc
       -0.022035534 0.06618657 -0.0044232346 -0.014660826
000240 48 64 75 bd 86 e5 c7 bd df 06 4b bc d1 e0 ad 3c
       -0.05991009 -0.09760575 -0.012391775 0.021225365
000250 2c 3d 11 3d 18 93 ee bc 82 18 34 bd 54 4a 4f bc
       0.03545873 -0.029122874 -0.043968685 -0.012651999
000260 9a 4c e0 bc 5d 37 9e bd 30 63 81 bc 77 e7 16 bd
       -0.027380276 -0.077254035 -0.015794367 -0.036841836
000270 04 5a 91 3c b9 2f ed 3b 1b 94 87 3d c1 c4 41 3d
       0.017743118 0.007238355 0.06620046 0.04730678
000280 66 d8 08 3c d9 48 32 bc b8 86 cf bb f6 66 61 3c
       0.008352375 -0.010881626 -0.0063331984 0.013757458
000290 52 e0 1e 3d bd 96 81 bc 17 fe 2c 3c b2 c0 65 3d
       0.038788147 -0.015818948 0.010558627 0.05609197
0002a0 37 92 0a 3d c0 e9 07 3d 0e cf a8 bd 7a 96 df bc
       0.033830848 0.033181906 -0.082426175 -0.027293433
0002b0 4f 70 50 3c 8e 30 4c 3c 37 e8 d6 3c d6 c4 1d bd
       0.012722089 0.012462748 0.026233776 -0.038517796
0002c0 20 7a 17 3d b1 18 00 3c 32 d7 0d bc c7 50 ea bc
       0.0369817 0.007818387 -0.008657264 -0.02860297
0002d0 61 47 08 bd 67 3f 27 3b 72 e3 30 3d c7 c5 48 3c
       -0.033271197 0.0025519968 0.04318566 0.012254185
0002e0 62 53 fc bc 51 02 e1 3c ad 71 5b 3d 7b bd 32 bc
       -0.030801479 0.027466925 0.053575207 -0.0109094335
0002f0 d1 d5 45 3d ad 03 5c bd 8f 41 26 3d 2e cb 67 bc
       0.048299614 -0.053714443 0.040589865 -0.014147563
000300 9a ab 60 3c f6 2c 6e 3c af 67 c0 3b 1c aa c0 3d
       0.013712788 0.014537087 0.005871735 0.09407446
000310 fd d4 3e 3d a2 2a 78 bb 5b 15 a2 3b 02 4b 9a bb
       0.04658984 -0.0037867208 0.0049463934 -0.0047086487
000320 58 3c c0 bd 11 e8 aa bd 42 a0 07 3b 0b d1 28 3c
       -0.0938651 -0.083450444 0.0020694886 0.010303746
000330 f5 87 f7 bb 58 9b c3 bc a2 2c 3c bd f6 0b 72 bd
       -0.007554049 -0.023877785 -0.045941003 -0.059093438
000340 92 ee 78 bd d9 bf 15 bd bc 3f 76 bd 36 7f 8f bd
       -0.060774393 -0.036559913 -0.060119376 -0.070066854
000350 02 88 3f bc c3 35 7c bc 17 70 95 bc 51 e0 a4 bc
       -0.011690142 -0.015393677 -0.018241925 -0.020126494
000360 6a 1c 3e 3c 07 50 4c 3d 31 91 11 3d 5b 25 c0 bc
       0.011603454 0.049881008 0.035538856 -0.023455312
000370 fd 24 c8 ba 32 42 1b 3d 92 14 e7 bc 85 26 61 3d
       -0.0015269812 0.037904926 -0.02820805 0.054968376
000380 7f 47 88 3d 30 52 a0 bb 5a 4e 55 bd 15 14 28 3b
       0.06654262 -0.00489261 -0.052076675 0.0025646735
000390 b6 3f ee 3b 4e 61 92 3c 74 21 f5 3b d3 d5 26 3d
       0.0072707785 0.017868664 0.0074807946 0.040731262
0003a0 9c cf 04 3d 6b 95 a1 3c 97 6c 78 bd 08 87 a2 bc
       0.032424554 0.019724568 -0.060650434 -0.019839779
0003b0 04 51 a8 bc 6a 4e 29 bd 75 1a 83 bd a5 43 4d bc
       -0.020546444 -0.041334547 -0.06401531 -0.012528335
0003c0 fe 3a 84 3d b6 7b 8f 3d 45 9b 94 3c 6f 06 0e bd
       0.06456564 0.07006018 0.018140445 -0.034674104
0003d0 0a 1b 1f bc 72 44 0b 3d ff c8 4b 3b ae 16 2c bd
       -0.009711036 0.03400082 0.0031095145 -0.042013817
0003e0 fb 14 54 bc 65 8e 9f bd 47 b6 d8 bd c8 46 1a bd
       -0.012944455 -0.077908315 -0.10581642 -0.03766516
0003f0 d1 dc c3 3b 8c d5 3a bd 5b f2 ce bc 9e f5 77 bd
       0.005977251 -0.04561381 -0.025262048 -0.060536973

fc1.bias f4 [120]
000000 0c b5 d6 3d db d0 14 3d 88 c8 71 bc fa 47 2a be
       0.10483751 0.036331993 -0.014757283 -0.1662902
000010 56 a7 9c 3d 75 e2 16 bd b3 6c cb 3d fd 27 2e 3e
       0.07649104 -0.03683706 0.09932842 0.17007442
000020 cc ec 51 bd ad 1b 0b 3e bb 34 9a 3d 57 50 9b 3d
       -0.051251218 0.13584776 0.07529589 0.07583683
000030 c8 92 f2 3d 77 bc 59 bd d5 22 48 bd 53 a3 a9 bd
       0.118444026 -0.05315825 -0.048861343 -0.08283105
000040 c0 6f 5c 3e 86 ee c8 3d 02 2b 10 3d 85 df 44 3d
       0.21527004 0.0981112 0.035197265 0.048064727
000050 c5 91 86 3d b6 47 0c be b6 96 e3 bc f0 25 ff bc
       0.06570772 -0.1369923 -0.027781826 -0.03114602
000060 e6 99 ac bd 28 f0 5e 3d 72 8d 14 bc 33 32 f1 bc
       -0.08427791 0.05442825 -0.009066926 -0.029442882
000070 be 36 20 3a 2f 09 00 3d b7 d4 80 3c 60 21 d1 3c
       0.0006111673 0.03125876 0.01572643 0.02552861
000080 c7 b7 df 3c 30 ed 86 bd 42 79 b7 ba 17 9d 1b 3c
       0.027309312 -0.06588209 -0.001399793 0.009497902
000090 59 5c 87 3d a9 02 72 3d 8e 33 09 3d 0f 8d 7a 3d
       0.06609411 0.05908457 0.033496432 0.06116968
0000a0 8c 3d 94 bd 97 2f e0 bc 62 cb aa 3d ac 59 1d bd
       -0.07238302 -0.027366443 0.083395734 -0.038415596
0000b0 ab c5 3a 3e 37 d6 9e bd cb 0f 1a bd f0 c0 4c bc
       0.18239467 -0.07755702 -0.037612718 -0.012497172
0000c0 0c a9 cb bc cf 12 a6 bd 09 12 0b 3c ba 46 9f bd
       -0.024860881 -0.08109056 0.008488187 -0.07777162
0000d0 79 76 cf bd af 5a d5 3d 35 39 20 3e b6 cc 2e 3d
       -0.10130019 0.10417687 0.15646823 0.042675696
0000e0 2a 99 fd bc 47 e0 c6 3d 99 cc 57 3e 1a dd 5c 3d
       -0.030956823 0.09710746 0.21074142 0.053921796
0000f0 5b 95 94 3d f2 57 2c bd 30 87 c3 3d 59 ad 42 be
       0.0725505 -0.04207606 0.09547269 -0.1901144
000100 32 10 77 3d 2f f8 3d 3d 97 be 9b bc 73 e8 66 3d
       0.06031818 0.046379264 -0.019011779 0.056374025
000110 8c eb a7 3c 08 03 b9 bd cc c7 ff 3d 35 90 1b 3e
       0.02049806 -0.09033781 0.1248928 0.1519173
000120 57 55 53 bd d7 bb f0 3b 2e bb cc 3d ce 89 5c bc
       -0.05159506 0.007346611 0.09996639 -0.01346059
000130 5d ef 5a bd 90 59 52 bc 3e 0e dc 3c aa f9 c3 3d
       -0.05345093 -0.012838736 0.02686226 0.09569104
000140 e5 ac f3 3d c8 e1 8a 3d f8 ab bd 3d af 8a 05 bd
       0.118982114 0.067813456 0.09261316 -0.032602962
000150 d5 f1 d4 3d 88 04 8f bd 2e 1b fb 3d eb 48 e2 3d
       0.10397688 -0.06983286 0.122610435 0.11049064
000160 ed 8a f0 bc ea e3 d0 3d 2e 91 e9 bd 96 7c 0e 3d
       -0.02936312 0.10199721 -0.11404644 0.034786783
000170 88 e6 0d 3c 9c d1 6c 3d ec 5e 38 bb fd a0 d1 bd
       0.00866092 0.057817087 -0.002813275 -0.10235784
000180 d8 b3 8e 3c e9 d6 22 3e b0 02 04 3d 7f 65 07 3e
       0.01741974 0.15902294 0.032229125 0.13222311
000190 ce 54 50 bd 63 62 a5 3d bc 69 d1 bc b8 b1 20 3d
       -0.050862126 0.080754064 -0.025563113 0.039231986
0001a0 b1 45 40 3d bd 63 d3 bc 32 46 81 3c a1 00 96 3d
       0.046941463 -0.025804395 0.015780542 0.07324339
0001b0 0c 75 2f 3c f1 0c d0 bc a3 fa 4a bd 39 c8 27 bd
       0.0107090585 -0.025396796 -0.049555432 -0.04096243
0001c0 89 d6 2d 3d e6 b1 e4 3c 9c ed c4 3c 95 84 ca 3c
       0.042440925 0.02791686 0.024039082 0.024721423
0001d0 d2 be b9 3d c1 a1 31 bd 8c 9e be bd 3b ce 17 bd
       0.09069599 -0.04336715 -0.09307584 -0.03706191

fc2.weight f4 [84, 120]
000000 1d 5b 7f bd 1c 11 9b 3c f8 30 a3 3b 61 9d 44 bd
       -0.06234275 0.018929057 0.0049802028 -0.04800165
000010 9d 86 f5 3c 34 02 ee bb 2d 7e 81 3d 43 34 ac 3d
       0.029971415 -0.007263446 0.06322894 0.08408406
000020 14 0f 91 3d 37 a1 94 3d 8c 12 12 bc 67 a9 9a 3d
       0.07082954 0.07257312 -0.008915555 0.07551842
000030 74 c0 5d bc 19 de 9b bd 59 89 4f 3d 86 67 38 3d
       -0.013534654 -0.07610721 0.050668094 0.045020603
000040 2b 3a b0 3d 14 73 91 ba 51 82 ce bc cc e7 0d bd
       0.08604845 -0.0011096918 -0.025208624 -0.034644887
000050 e3 0e 4c bd 20 ac c1 3c 32 09 5a 3d 83 80 7c bd
       -0.049818885 0.023641646 0.053231426 -0.061645996
000060 ac 47 a9 3d f9 30 1a 3d 1f c9 c0 bd df 31 41 3c
       0.082656235 0.03764436 -0.09413361 0.011791675
000070 7e 28 9c bd c6 80 e0 bc bf 88 d9 3c 08 c6 06 bc
       -0.07624911 -0.027405154 0.026554463 -0.008225925
000080 4b e8 b2 3d a5 37 9b bd c3 3b 9d bd 01 c4 a8 3b
       0.087357126 -0.07578973 -0.07677414 0.0051503186
000090 b9 ed 23 3c ab 3e 1b bd 56 c9 b3 bc 38 4f 06 3b
       0.010005408 -0.03790156 -0.02194659 0.0020493995
0000a0 a6 c5 48 bd 36 19 4c bd 4c 18 b1 bc fe d4 24 bd
       -0.049016617 -0.04982873 -0.021618031 -0.040242188
0000b0 a5 60 95 bc d8 f1 72 3d 46 da 31 3d 44 57 9e bd
       -0.01823456 0.05931267 0.043421052 -0.07731488
0000c0 94 1c fc bc a4 36 ea bc 0c 8e 4c 3b f3 e6 be bc
       -0.030775346 -0.028590508 0.0031212596 -0.023303485
0000d0 c0 2d c4 bc af 03 71 bd 94 5e ba bd bf 75 97 bd
       -0.023947597 -0.058841404 -0.091000706 -0.07395505
0000e0 d6 58 31 3d 1c cf 94 3c 12 82 fd 3a d9 a5 10 3d
       0.04329761 0.018165164 0.0019341132 0.035314415
0000f0 78 6a da 3d a1 68 67 3d 9f dc 86 bd a8 30 82 3d
       0.106648386 0.056496266 -0.06585049 0.06356937
000100 d1 67 75 3d 6a ff 8d bd 31 47 7a bd 39 3f a8 bd
       0.05991346 -0.06933482 -0.06110305 -0.08215184
000110 9f 6b 39 3d f7 84 62 bd 61 34 94 bd ea 94 53 bb
       0.04526865 -0.055302586 -0.07236553 -0.0032284805
000120 de d0 7b 3d 5f f7 2d bd de 08 a2 3d b7 cd 61 bd
       0.06147849 -0.04247224 0.079118475 -0.055127826
000130 dc 0e e2 3a 39 12 c5 bd 93 db 00 bb 90 c5 89 bd
       0.001724686 -0.09622616 -0.0019662126 -0.06727135
000140 68 cd 9b 3d 48 cb 65 bd ea a0 2f 3d 1e a7 3c bd
       0.076075375 -0.056102067 0.04287807 -0.046057813
000150 0c 4d b3 3d c8 1c 9a bd ed 24 43 bd f3 11 9f bd
       0.0875493 -0.07525021 -0.047642637 -0.077670954
000160 bf 2d 15 3d 38 80 93 3c 84 38 7f bd 96 89 9f bd
       0.03642058 0.018005475 -0.062309757 -0.07789914
000170 9d 24 ec bd c6 38 94 3d 8b 5d e0 bc 8e 01 c7 3b
       -0.11530421 0.07237391 -0.027388355 0.0060731834
000180 0a b7 73 3d ef 7e 51 bd e3 b8 b6 3d 8d 55 a8 3d
       0.05950073 -0.051146444 0.08921983 0.082194425
000190 97 42 7b bc 4a 8f b0 bc 3e f8 80 3d 96 05 aa 3c
       -0.0153357005 -0.0215527 0.062973484 0.020754617
0001a0 a3 21 24 3d e5 d1 c8 bc 44 a4 3a 3c 13 3f 8a 3c
       0.04007114 -0.024514148 0.011391703 0.01687578
0001b0 c2 5b 74 bc d4 4f ec 3c 73 57 28 3c 75 2a ae 3d
       -0.014914455 0.028846659 0.010274756 0.08504192
0001c0 02 04 65 bd 97 ac 9f bd 1f c8 b9 bd 17 09 b1 3c
       -0.055912025 -0.07796591 -0.09071373 0.02161078
0001d0 cc 79 e0 39 cd 80 ee 3d 45 a3 7c bd f1 47 e0 3d
       0.00042815355 0.116456605 -0.061679143 0.10951222
0001e0 81 36 9c 3d 62 d1 83 3d 07 76 89 3c 30 60 b6 3d
       0.07627583 0.06436421 0.016779913 0.08905065
0001f0 a3 f6 cc bd 1d 32 8f bd 00 d8 f6 3d a0 18 8b bd
       -0.1000798 -0.0699198 0.120529175 -0.06791806
000200 a0 43 72 bd 48 82 1a 3c e7 6a 8d 3d c2 65 08 3d
       -0.059146523 0.0094304755 0.06905156 0.03330017
000210 e8 88 1e bd 1e 74 cf 3c 6c 13 5b bd aa 24 42 bd
       -0.038704783 0.025323924 -0.05348532 -0.047398247
000220 9e 5d 92 bc 0f 6a 68 bd 69 aa ba bd 11 95 bd bd
       -0.017866906 -0.05674177 -0.091145344 -0.09256948
000230 e2 17 b8 3d f4 e3 70 bd 78 0c a0 3d b8 02 2e bd
       0.0898893 -0.058811143 0.07814878 -0.04248306
000240 1d cc 77 bd e9 76 95 bd 6a 43 17 3d 41 07 5c 3d
       -0.060497392 -0.07298071 0.036929525 0.053717855
000250 eb 26 20 bd 5a 9f 7e 3b 3a 75 d8 3d 8c bd 0a 3c
       -0.039099615 0.0038852305 0.10569234 0.008468043
000260 f3 3e 6f bd 7d 89 f3 3d 2f ab a4 bc 9c 04 92 3d
       -0.058409642 0.11891458 -0.020101158 0.071297854
000270 52 0b 46 bd 2d 97 70 bd f0 e8 b6 3c cb 0d 27 3e
       -0.04835064 -0.058737922 0.02232787 0.16313855
000280 47 22 35 bd f0 d2 3b bc d0 cd 4b 3d fc 7e 8b 3d
       -0.044222143 -0.011463866 0.049756825 0.0681133
000290 ec fe 9c bd fc bc bd 3d 2e f6 03 bd 6a 95 a6 bd
       -0.0766581 0.092645615 -0.032217197 -0.08133967
0002a0 85 d7 fe 3c b7 f3 45 be a1 b9 0f be 48 55 67 bd
       0.031108627 -0.19331251 -0.14035656 -0.056477815
0002b0 78 fc 82 bd 43 79 77 bd 38 35 86 bd 8c eb 2a bd
       -0.06395811 -0.06041838 -0.065531194 -0.04172854
0002c0 e7 d0 30 bd 6c 0e e0 3d 62 57 93 3d 3c 3c 1f 3c
       -0.043167975 0.10940251 0.07194401 0.009718951
0002d0 ce 7a 11 3d 10 67 66 3d b8 86 ab bb 65 4e b3 3c
       0.035517506 0.05625063 -0.0052345656 0.021887967
0002e0 bf 15 e6 bc ac 03 34 3d 5f 5b 1c 3d c9 47 01 3e
       -0.028086541 0.043948814 0.038173076 0.1262504
0002f0 3f 14 88 bc ec 21 b0 3d 5a 40 ac 3d 59 04 0d 3c
       -0.016611217 0.0860022 0.084107116 0.008606994
000300 63 e2 87 bd 33 d9 0d bd 51 37 92 bd 57 74 1d bc
       -0.06634977 -0.034630965 -0.07139457 -0.009610257
000310 80 fe e4 bd cc 5c 82 bd 1c c5 e7 bd 91 8c c0 3d
       -0.111813545 -0.06365356 -0.113168925 0.09401811
000320 57 9a 8a bd 31 e9 66 3c 83 4f ec 3d 37 78 39 3d
       -0.06767719 0.014093683 0.11538603 0.04528066
000330 9e c5 91 bd 91 84 ba 3c 36 02 1e be 9f 3e b9 3d
       -0.071177706 0.02276829 -0.15430531 0.09045147
000340 fb d5 89 bc b4 18 8d bd a0 f0 b5 bd f2 bd 1e be
       -0.016825667 -0.06889477 -0.08883786 -0.15502146
000350 46 5c 43 bc ac 3a 27 3b d1 dd a8 3d c9 61 3d bb
       -0.011923855 0.002551715 0.08245433 -0.0028897396
000360 5d f5 82 bd 62 91 83 3d 7e be 3b bd b4 8d 3d bc
       -0.063944556 0.06424214 -0.045835964 -0.011569429
000370 f2 78 d4 bc 15 4c 89 3c d3 24 b1 bd 82 2e b2 3b
       -0.025936577 0.016759912 -0.08649602 0.005437673
000380 7b 10 bc bc 0c 64 03 be a3 ad 53 bd 5c 62 0a 3c
       -0.022957077 -0.12831134 -0.051679265 0.008446302
000390 e5 95 83 bd f8 5f 82 3d 9d e3 ad bd 05 3c c0 3c
       -0.064250745 0.06365961 -0.084906794 0.02346612
0003a0 0b 0b af bc 42 17 ab bd 94 a7 03 bd 8e b9 33 3d
       -0.02136757 -0.083540455 -0.032142237 0.04387813
0003b0 e7 1a 7a bc f4 8b 41 3d bd 63 24 3d b1 b1 a9 3c
       -0.015265203 0.04725261 0.04013418 0.020714613
0003c0 da 2d 86 3d 95 0d 00 3d 20 8d 07 bc e0 88 4d 3d
       0.06551714 0.031262953 -0.008273393 0.050179362
0003d0 94 1c f2 3a 81 e5 8f bc da 0e 0a bd 1c ba 8f 3d
       0.0018471652 -0.01756549 -0.03370557 0.070179194
0003e0 56 54 02 3d 1f a9 ab bd 9f e7 5d bd 6a 62 a3 bb
       0.03181871 -0.08381867 -0.05417597 -0.004986097
0003f0 03 81 ce bd 57 e5 81 3d b8 84 45 bc c5 7b a4 3c
       -0.10083201 0.06342571 -0.012055568 0.02007855

fc2.bias f4 [84]
000000 b9 ea ca bc e5 cd fd 3d bf 0d 79 bd 26 ab 67 bd
       -0.024770128 0.12392787 -0.060804125 -0.056559704
000010 b3 48 00 3d b8 40 dc bd bc c0 35 3d 67 cc 84 3e
       0.03131933 -0.107545316 0.04437326 0.25937197
000020 01 2c 80 be 91 e2 92 bd bc 5b 98 bc 28 d7 02 3e
       -0.25033572 -0.0717212 -0.01859843 0.12777388
000030 9a 8d 8a 3b 4b 5e 9c 3d a8 7a 45 3d a1 06 6c 3c
       0.004228306 0.076351725 0.048212677 0.014405877
000040 76 3d 94 3d e9 6a eb 3c 59 2b 24 3e 16 58 b3 3d
       0.07238285 0.028737502 0.16032161 0.087570354
000050 f7 dc 49 3b 25 d8 82 bd 6b 35 19 3e 24 92 82 3d
       0.0030801871 -0.063888825 0.14961784 0.0637553
000060 c5 5f fe 3c 43 36 3d bb e6 86 28 bd a8 d5 99 3d
       0.031051526 -0.0028871454 -0.041144274 0.07511455
000070 e7 84 17 3d f2 19 69 3d 57 f2 a9 3c aa 41 86 3e
       0.03699198 0.05690951 0.02074544 0.26221973
000080 79 df 49 be 6d 71 52 bd b1 4f 82 bd 8b 07 54 3b
       -0.19714154 -0.051377703 -0.06362856 0.0032353129
000090 4f 98 2f 3e 2d c3 04 3e 67 14 9f 3d fa 9a 46 bc
       0.17147945 0.12965079 0.07767563 -0.01212191
0000a0 8c 20 d3 bc b4 7a 73 3d 16 28 80 3d 79 0f 96 3e
       -0.025772355 0.05944319 0.06257646 0.2930868
0000b0 d8 c0 de 3e f4 6e 52 3d b2 0d 1c bd 40 5b 23 be
       0.43506503 0.051375344 -0.038099 -0.15952778
0000c0 d8 e2 72 3e c7 8a 48 3c de 36 44 3c d3 55 05 be
       0.23719347 0.012240118 0.011975972 -0.1302102
0000d0 52 af aa 3c 8c ef fd 3d e8 bc 88 3d 0c 1a 5d 3c
       0.020835552 0.123992056 0.06676656 0.01349498
0000e0 7e f4 32 3d dc 75 aa bd cc 72 09 be 03 e2 86 bd
       0.043690197 -0.08323261 -0.13422698 -0.06586077
0000f0 48 1b 7f bd c1 81 61 3d 23 f6 a0 3d 9a 34 f1 3d
       -0.062281877 0.055055384 0.07859447 0.11777611
000100 0f 51 01 3e 49 bf d0 3c ba 94 27 be a5 c1 95 bc
       0.12628578 0.025481837 -0.16365328 -0.018280813
000110 a2 a3 2d 3d 24 5b aa bd fc 51 8f bd 48 45 ea 3d
       0.04239238 -0.08318165 -0.06998059 0.114389956
000120 ac 0a ec 3d ae 37 f4 bd 31 f7 5c 3c ed 61 6e 3c
       0.11525473 -0.119246826 0.013486669 0.0145497145
000130 10 68 a9 3c 27 58 90 3e 80 35 2b 3e 12 80 d9 bc
       0.020679504 0.28192255 0.16719627 -0.026550326
000140 c8 88 99 3d f8 f3 1e 3e 21 c9 53 3e aa aa 28 3e
       0.07496792 0.15522754 0.20682193 0.16471353

fc3.weight f4 [10, 84]
000000 e2 d7 e2 3d 41 72 a6 ba ce c4 09 3d fb 00 49 3e
       0.11076333 -0.0012698845 0.033634953 0.1962928
000010 4a e9 d8 3d f9 ba a7 3d f3 b8 13 bd 8e 50 cf 3d
       0.10591371 0.08189959 -0.036065053 0.101227865
000020 97 73 b3 3c ad 01 d6 bd 7b f9 18 bd 21 69 95 be
       0.021905703 -0.104495384 -0.037347298 -0.2918177
000030 62 c0 49 3d e4 52 7b ba 2c 0e 7d 3d bf a8 26 3b
       0.049255736 -0.0009587242 0.061781093 0.002543017
000040 53 94 02 3e 27 5a 20 bd dc 35 2b bd 94 c9 26 3e
       0.12751894 -0.039148476 -0.04179941 0.16287833
000050 7e 27 54 be 05 77 4c 39 53 59 df 3d 7b ba 7a bd
       -0.2071819 0.00019499294 0.10905709 -0.061212998
000060 d7 0f 48 be 1b 44 13 bc 4a 11 e1 3b 83 db 35 be
       -0.19537292 -0.008988406 0.006868516 -0.17759518
000070 84 f7 8a be 17 02 0b be bd 37 74 3d 98 6a dc 3b
       -0.27141964 -0.13575016 0.05962347 0.006726574
000080 b4 f3 44 3d c6 06 9c bd 12 d5 83 bd ba c5 18 ba
       0.048083976 -0.076184794 -0.06437124 -0.00058278034
000090 30 d0 e2 3d 18 42 19 be 1d e9 1f 3d bb 56 a2 3d
       0.11074865 -0.14966619 0.039040674 0.07926699
0000a0 68 42 48 bc 73 aa af bd 16 e1 4b 3e 1f 82 cc 3d
       -0.012222864 -0.085774325 0.19910082 0.09985756
0000b0 28 b6 43 be bf 9f 8a 3e a2 7a 07 3e 36 d5 66 3d
       -0.19112456 0.27075002 0.13230374 0.056355678
0000c0 2c 3d 90 be 15 89 25 be d1 4e 34 bc e4 24 00 bd
       -0.2817167 -0.16165574 -0.011005119 -0.03128518
0000d0 2c 68 a7 3d a4 2a 60 3e ef ca 73 3c c8 55 83 bd
       0.08174166 0.21891266 0.014879926 -0.06412846
0000e0 fa 94 c3 3d 24 af b9 3d 8a d9 86 3e b5 9a 2a be
       0.095498994 0.090666085 0.26337844 -0.16660579
0000f0 b5 7a 75 3d 2c 58 7b bd d4 a4 00 3d 2a 71 3a 3c
       0.059931476 -0.061363384 0.031407192 0.0113795195
000100 bd 3f 13 be 4a ce 4a bd 56 b4 9c bd 8a fb 99 3e
       -0.14379783 -0.04951314 -0.07651584 0.30074722
000110 5d de b3 bc e2 68 3c 3b 67 38 ed 3b 7c 89 45 3e
       -0.021956617 0.0028749038 0.0072393897 0.19290727
000120 2b 42 04 be 11 18 90 bd 67 51 a9 3d 9a 3d b7 bd
       -0.12915866 -0.0703584 0.082674794 -0.089472964
000130 d2 6d 2d bd 99 ef 96 3e 26 d4 49 3e 5e 2d 72 bc
       -0.04234106 0.29479674 0.19709834 -0.014781324
000140 06 1f 63 3e 05 ee fb bd 39 4b 04 3e bc d1 34 3e
       0.22179803 -0.12301258 0.1291932 0.17658132
000150 eb 70 bf bd 1b 93 34 be 57 1d c0 bd 05 f0 15 3e
       -0.09347709 -0.17634241 -0.09380596 0.14642341
000160 4e 30 9a bc 1a 38 91 bd 1e dd 80 bd 75 02 d9 3d
       -0.018821862 -0.07090779 -0.06292175 0.10596172
000170 a0 b9 98 3e 67 53 ac 3d b4 8b d4 bc 69 70 28 3d
       0.2982912 0.08414345 -0.025945522 0.041122828
000180 b3 1c 92 bd 13 ba 87 bd d7 3f 71 bc 62 41 a1 3c
       -0.0713438 -0.06627288 -0.014724693 0.019684497
000190 e6 17 8a 3e 47 85 93 3c fd 42 bb bd ae f8 1d 3d
       0.26971358 0.018007888 -0.091436364 0.038567238
0001a0 1c 93 a3 bd 03 4c 6a bd 08 54 ac bd 81 da 11 3d
       -0.07987043 -0.057201397 -0.08414465 0.035608772
0001b0 58 e1 63 bd e6 1b eb bd e1 ab 13 be 33 ef 59 3d
       -0.055634826 -0.114799306 -0.14421035 0.053206634
0001c0 93 a4 91 bd 47 33 4a 3e 01 3b f9 3c 54 b1 65 bd
       -0.07111468 0.19746123 0.030423643 -0.056077316
0001d0 bb 03 b4 3e 71 9e f4 bd c8 cc 87 3a ae 44 5d 3d
       0.35159096 -0.11944283 0.0010360712 0.054020576
0001e0 11 31 19 be 79 ef cd bd 8c e8 d1 3d 57 30 8b 3d
       -0.14960124 -0.100554414 0.10249433 0.067963295
0001f0 28 2d 6b bd 22 41 ad bd 3a 71 f1 3c e6 9e 99 be
       -0.05741611 -0.08459689 0.029472936 -0.30004042
000200 d5 b9 a4 be 39 99 31 be a4 60 ca bc 42 1a 40 3e
       -0.3217303 -0.17343606 -0.024704285 0.18760017
000210 f0 b6 6f bd 30 28 08 be d2 23 68 3d 78 e9 05 bc
       -0.058524072 -0.1329658 0.056674786 -0.008173339
000220 e8 4f b2 3d 05 7d 02 be 51 d4 bc bd 46 bc 0e be
       0.08706647 -0.12743004 -0.09220184 -0.13939008
000230 79 5b a3 bd 3c 0e 9e bd 28 c7 95 3e b2 9b 04 3d
       -0.079764314 -0.07717559 0.29253507 0.032375045
000240 3a f6 d4 bb e8 07 87 be 89 fa 4c be 18 ca b8 bd
       -0.006499079 -0.2637322 -0.20017447 -0.09022921
000250 45 3e a3 be fc 5e be 3c 62 47 8a 3e 73 8b 5b be
       -0.31883445 0.023238651 0.27007586 -0.21439914
000260 8a 0d 9f 3b bc d7 6a 3d 9e b4 90 bd 43 47 d8 3c
       0.004853909 0.057334647 -0.070657 0.026401168
000270 54 d6 33 bb 7f 63 a6 3b f9 48 a1 3e 5e 36 ed bd
       -0.0027440982 0.005077779 0.31500986 -0.11582635
000280 ad 83 ca 3c 96 63 83 be 82 6a 22 3c 60 1b 2f bd
       0.024720991 -0.25661916 0.009913089 -0.042750716
000290 48 c3 9b 3e c6 cb e0 3d f6 a5 09 be 19 7e cd 3b
       0.30422425 0.10976367 -0.13442215 0.0062711355
0002a0 1f 30 8a 3d 16 7f aa 3c 56 f8 ea bc 88 73 a0 bd
       0.067474596 0.020812552 -0.028682869 -0.07834536
0002b0 b9 31 02 bb a1 5b 26 3a b0 35 46 3d fb 6d 2d be
       -0.0019866063 0.0006346051 0.048391044 -0.16936485
0002c0 e7 64 2f be ce db 75 bd 95 11 11 bc cb 9d 05 3d
       -0.17128335 -0.060024075 -0.00885429 0.032621186
0002d0 f9 d1 99 3d ab 4c cd bd 78 a9 61 bd 39 2c 21 be
       0.07510752 -0.10024389 -0.05509326 -0.15739526
0002e0 fb 78 b2 3d 0f 8a 45 3d 7c 85 d1 3d ef bd 9c bc
       0.087144814 0.048227366 0.10230538 -0.019133536
0002f0 2c 73 db 3d b1 0d 5a bd 14 6e b5 bd fe 01 46 be
       0.10715327 -0.053235713 -0.08858886 -0.19336697
000300 2e 17 32 bd 94 94 91 3d 88 f6 bf 3d 64 9a 35 3b
       -0.043479137 0.07108417 0.09373194 0.0027710432
000310 aa a2 f4 bc 9c ea f3 bb bf 1e 84 3d e5 a7 85 3e
       -0.02986272 -0.007443739 0.06451177 0.26104656
000320 2e 03 ac bd 36 bd c9 3c e3 d5 9c 3c f0 e9 84 3d
       -0.08399044 0.024626356 0.019144958 0.064899325
000330 68 3b a5 3e e6 d6 1b be 0f df 11 3e 39 97 dc bd
       0.32271886 -0.15218696 0.14245246 -0.10771031
000340 fb f7 10 3d 05 05 67 3c 45 e4 1c be 68 0c a2 3e
       0.035392743 0.014100318 -0.15321453 0.3165009
000350 d8 d9 49 3e 85 88 82 3e 8f 51 cc 3d 11 b1 94 bd
       0.19712007 0.2549478 0.099764936 -0.07260335
000360 80 2a 81 3d e5 1f 48 3e d3 8c 64 bc b6 07 b1 bd
       0.06306934 0.19543417 -0.013949591 -0.08644049
000370 3a 95 39 3d 96 2b 47 bd fd ae e8 3d 0c 98 19 3e
       0.04530833 -0.04862555 0.11361501 0.14999408
000380 2e 10 0a bd 09 95 7f 3d 44 48 e2 bd 2f 89 86 bd
       -0.033706836 0.06239799 -0.1104894 -0.065691344
000390 75 fa fc bc 16 3a 4a 3d 8f c6 db 3c b2 5a 67 3e
       -0.030881146 0.0493718 0.026828079 0.22593191
0003a0 4d 62 e6 3c c7 1c 63 bd b7 93 6d 3d 7b 68 ee 3b
       0.028123045 -0.055447366 0.0580022 0.0072756386
0003b0 ec b2 4f bd e9 ce aa bd 82 ad 2b bd 7a 1f 30 3e
       -0.050707743 -0.08340246 -0.041913517 0.17199507
0003c0 3f 1f 74 be 0f fe 65 3e 7d 53 7e be 1d 4d 73 3d
       -0.23840044 0.22460197 -0.24836536 0.059399713
0003d0 3f a9 2e bd 60 a8 8a 3e 29 d4 6b bd 96 3b ed bb
       -0.042641874 0.27081585 -0.05757538 -0.007239769
0003e0 f0 20 4b bd 94 25 06 be 62 03 21 bc 4f 8b e2 bd
       -0.04959196 -0.13100272 -0.009827467 -0.11061727
0003f0 26 83 85 bc b1 13 3a 3d 6c 36 bc bd c3 1a 1e be
       -0.016297888 0.045428935 -0.09190068 -0.15439896

fc3.bias f4 [10]
000000 77 b2 40 be f7 fc 25 bf 6e 76 2b 3e bd 3b 83 3e
       -0.18818079 -0.6483912 0.16744396 0.25631514
000010 dd 2a 11 3f 8e 49 72 be c4 48 57 3e 15 84 5c be
       0.5670603 -0.23660871 0.21023852 -0.2153476
000020 15 6d f4 3e f2 78 99 be
       0.47739473 -0.29975086
